models/checkpoints/gat.pt (torch, 409138 bytes, 11 tensors)

gat1.att_src f4 [1, 4, 64]
00000000: 68e9 12be 4b92 8abd a077 ad3a 7db3 90bc
00000010: 5960 983d 8fc2 85be efbe b73e 8177 1e3e
00000020: 96c8 2e3e 28c8 81be a178 883c c7c5 003d
00000030: 5822 313e 26bc 9f3d 7e4c a53e f654 bc3e
00000040: 6182 863e e838 fc3d a3c8 4abe 24fc 20be
00000050: 52a0 e53d 5363 6a3c 92dd fabc b864 e4be
00000060: 6ca0 ccbd 66fe 9d3e 08fa 9fbe 13e1 90bd
00000070: 15c6 3abc c21a 823e 1241 a7be 29b2 af3d
00000080: 1d64 ff3d 6e3a 65be 22b2 4cbe 7287 60bd
00000090: b62f 34be a0a7 5bbd 12fb e7bd d8bc c93e
000000a0: 00f4 49be 3576 533e abdc f53d 0286 b6be
000000b0: 22a8 aa3d acf7 1abe 4cbb d43d c1f1 bcbe
000000c0: 55bb 833e c2b3 eebe 3375 9cbe 1bd2 383d
000000d0: 2397 2c3e 4ea6 de3d e96a a73e c044 9c3d
000000e0: 2e13 083e 4f09 113e daa0 49be c49a edbc
000000f0: 90fa 313e ba3d 3d3d 1b1a 76be 83c9 923d
00000100: 5ed8 c53d eb1b 93be 7976 193d 2abb 2bbe
00000110: 3919 cbbd 4c69 68be 2f22 0ebe c673 8f3e
00000120: 1bf5 89be 0cac 27be bdd0 803c 148c ca3d
00000130: fbf2 c73d c12c 96bd a82e dc3d b724 b83d
00000140: f1b3 8ebd 02c2 c33e 002f 93bc 68a2 5cbd
00000150: 6001 3f3c 5eb8 14bc 18eb f73d 0a94 5abd
00000160: 6561 3c3d a9ae 463e ec3a 9a3d 08c1 79be
00000170: 2a6c 613e 975b 49be 9403 0fbe a9e8 913e
00000180: bb55 ecbc fe21 583e 13fa d5bd 28a0 a13e
00000190: 6c17 c93d 8ec0 cc3d c6a8 0f3e f8b8 e3bd
000001a0: a0d1 4fbe 92fa 29bd d2d3 303e 7180 023f
000001b0: 5181 cebe 2ce5 803e e810 013e 5870 0d3e
000001c0: e36d acbe ef1f 9a3e 294b 89be 2abb afbe
000001d0: 1d56 68bd faa7 1fbd ebba 943d e187 66be
000001e0: a3e6 8ebe 6097 54be 3f6c ad3e 7ed2 813e
000001f0: 67d7 fc3d b2fe c7be 6a51 2a3c 9a26 9f3d
00000200: eb44 89bd c173 0c3f 8d45 b9bb 0533 b93e
00000210: bd97 a23e ffb9 b7be 80ec 12bf 22d6 ecbe
00000220: 51be eabd 3d8c c83d 3b75 a6be a3d1 33bf
00000230: 3d69 37bc 75ed be3e 1610 023f b847 53be
00000240: f25b c83e e729 babe 917e a33d 49ef ec3e
00000250: 8836 05bf eee4 da3e 384b a9be 4930 03be
00000260: 22ce 8a3c d679 dfbd f9be 7d3e cfd6 a2be
00000270: da90 5bbe 389d 903e 9cc5 3f3e bd91 26bf
00000280: 45ea 6c3e 138c 093e 418b 8ebe c10e 19bf
00000290: 9495 cbbd 79ae 003e abb8 aa3c 995a a93e
000002a0: 2a5c c83e 84f5 ea3d 7c03 84be 10fd 45bd
000002b0: 5424 9d3e a558 133f fcef 943e 74ca 9ebe
000002c0: 11bd 563e 4551 72be f536 89be 8914 853e
000002d0: 59d4 253c 05fa d13e c4dc dabe 4cf5 10be
000002e0: 2d86 4bbe bfc9 773d f8f1 13be f24e 43bc
000002f0: 1541 95be 8088 663c 1646 a1be 6e72 3dbf
00000300: 6981 423e 9053 19be f7ad 99be d1ad 77be
00000310: d5cd bbbe ec9f 893d 9349 b73d 0a3a 60be
00000320: 10e6 7c3d 25ea d1bd d43a febe 092f a83d
00000330: e629 ef3d 5014 873e 1567 463d 9d0d b3bb
00000340: 7614 cebd bf85 933d 8e74 5b3e cc41 d73e
00000350: b4e0 87bc dfd2 80be 16e6 8bbc 1f7e 273d
00000360: 8991 75bd 99f1 d3be 1e68 9a3e c5c2 913e
00000370: e8b9 ddbe f727 d83c 1e49 85be 03f0 70bd
00000380: fc8c 3d3d 1cea e3be a099 043e 9b86 ebbe
00000390: ad85 e8bd fe92 113f 8902 253e 39c7 d7be
000003a0: d5a0 f2be 2570 01bf ce5e 4a3e 0982 cebe
000003b0: d80f 7dbe 70d9 afbe c7a6 f5bd 8704 acbe
000003c0: c255 67be 665d 30bd 07bf 433e 33d7 96bd
000003d0: 4613 a0be 322d 413e 7ae0 c53d c11e 07be
000003e0: 5387 543e 02cb adbe ff95 2a3d fd7b ab3e
000003f0: bd57 693e fc4b 233e a1e3 4bbe 1b13 a73d
-0.1434685 -0.067661844 0.0013234504 -0.017663712 0.07440252 -0.26125 0.35887858 0.15475275
0.17068705 -0.2534802 0.016659083 0.031438615 0.17298257 0.07799558 0.3228492 0.3678357
0.26271346 0.123155415 -0.198031 -0.15721184 0.11212219 0.014305907 -0.030623231 -0.44608092
-0.099915355 0.30858153 -0.31245446 -0.070741795 -0.0113997655 0.2541104 -0.32666832 0.08578903
0.12470267 -0.2238557 -0.19989827 -0.05481667 -0.17596325 -0.053626657 -0.11327185 0.3940189
-0.19721985 0.20650561 0.1200498 -0.35649115 0.0833285 -0.15133542 0.103872865 -0.36903194
0.2572886 -0.4662152 -0.30558166 0.045122247 0.16854529 0.10871564 0.32698753 0.076303005
0.13288566 0.14163707 -0.19690266 -0.029004462 0.17380738 0.046201445 -0.24033396 0.071673416
0.096604094 -0.28732237 0.0374665 -0.16770616 -0.0991692 -0.22696418 -0.13880228 0.28018016
-0.26944813 -0.16374224 0.015724534 0.09889999 0.09763142 -0.07332755 0.107510865 0.08991378
-0.06967915 0.38233954 -0.017966747 -0.05386582 0.011658043 -0.00907716 0.121053874 -0.053363837
0.04599132 0.19402565 0.0753077 -0.24390042 0.22013918 -0.19663845 -0.13966209 0.28497818
-0.028849473 0.21106717 -0.104480885 0.31567502 0.098189205 0.099976644 0.14029226 -0.11119264
-0.2029481 -0.041498728 0.17268303 0.50977236 -0.40333036 0.25174844 0.12604105 0.13812387
-0.33677587 0.30102488 -0.26815155 -0.34322482 -0.05672275 -0.038978554 0.07262214 -0.22512771
-0.27910337 -0.2076087 0.33871648 0.25355905 0.12345772 -0.39061505 0.010395387 0.077710345
-0.06702598 0.54864126 -0.005654043 0.36171737 0.31756392 -0.3588409 -0.5739212 -0.4625712
-0.11462081 0.09792373 -0.32511315 -0.70241755 -0.011194524 0.3729054 0.50805795 -0.20632827
0.3913265 -0.36360094 0.07983125 0.4627631 -0.52036333 0.42752784 -0.330652 -0.12811388
0.016943995 -0.1091191 0.24779882 -0.3180451 -0.21441975 0.28244948 0.18727726 -0.6506613
0.23136242 0.1343234 -0.27840617 -0.5978814 -0.09940639 0.12566556 0.02084001 0.33076933
0.39132816 0.1147261 -0.25783908 -0.048337042 0.3069178 0.57557136 0.29089344 -0.31013834
0.2097056 -0.23663814 -0.2679974 0.2599223 0.010121428 0.41011062 -0.42746556 -0.14156073
-0.19875403 0.060495134 -0.14447773 -0.0119206775 -0.29151216 0.01407063 -0.31498784 -0.7400273
0.18994679 -0.14973283 -0.30015537 -0.241874 -0.36680475 0.06719956 0.0894958 -0.2189714
0.061742842 -0.10249738 -0.49654257 0.08212096 0.11677913 0.26382685 0.04843815 -0.0054642693
-0.10062496 0.072032444 0.21431181 0.42042387 -0.016586639 -0.25160882 -0.017077487 0.040891763
-0.059953246 -0.41395262 0.3015756 0.2846891 -0.43305898 0.026386244 -0.26032346 -0.058822643
0.04627703 -0.4451455 0.12949228 -0.46001133 -0.11353622 0.5686492 0.16114248 -0.42144182
-0.4738833 -0.50561744 0.19762728 -0.40333584 -0.24713075 -0.3434558 -0.11994701 -0.33597204
-0.22591308 -0.04305782 0.1911584 -0.07365265 -0.31264704 0.18864897 0.09661956 -0.13195325
0.20754747 -0.33943945 0.041646954 0.33493033 0.22787376 0.15946954 -0.19911052 0.08157941

gat1.att_dst f4 [1, 4, 64]
00000000: c221 a9bd f41b bcbe a154 a53e d33b b9bd
00000010: 5aa0 9c3e bb3e 91be 5b7d f23d 4079 dc3e
00000020: 9970 b5be 1749 68be c4bf 903e db95 b13e
00000030: cb75 5abe 7e7a 47be b250 79be 4a04 b43d
00000040: 5aa3 bf3d f465 1bbe 708c a2bd 5f20 bcbe
00000050: 406f 9abe b145 f73e 6f39 f53d d7c6 b4bc
00000060: f114 e03d e8ec 73be dc2e 403e d7e7 8d3e
00000070: aa02 a2bd d8b0 7cbe 16bb 86be c5e3 213e
00000080: 742c 67be 4272 f7be a55d 92bd 3ffe 0c3e
00000090: e196 2fbe 9656 8bbe f731 9cbe 1738 19bf
000000a0: 8459 043e 4f35 b7be 9585 493e de94 103e
000000b0: 38fe 49be 45d5 383e 0da7 023e f6f8 67be
000000c0: 5019 c6bd 8c10 973e 7013 a0bd 2d0d dfbe
000000d0: e4cd f83e 982c 303e b3db d1bd 7a0c a5bb
000000e0: a02f 07bd 05e6 54bc 90c8 013f 695f 4ebe
000000f0: 1db5 aebd 62c5 54be b133 d4be dd18 34be
00000100: 663a 97bd 6fc5 b9be 0d36 043e 03c6 d03d
00000110: 0179 623c 042b ee3c fbec 8ebe 0083 873d
00000120: 5f32 f8bd 66f7 953d e719 b1bd 6bff 11be
00000130: 512c 50be 308c 183d f431 c0be 3e79 43bb
00000140: 56a8 4f3e 433b 94be fa26 303e ef88 b4be
00000150: ed92 1abe 94e4 53bd 4cd4 b23e bcfd 8cbd
00000160: 2265 95be 4592 593d 2b5e 9b3e b2c9 65be
00000170: 2476 6abe 1087 84be 45fc d5bd a4c7 3c3e
00000180: 6256 423d b477 b1be 1fc0 1f3e d28e 343d
00000190: 7932 f0bd ba01 543e a59d cdbb 0cf2 a4bd
000001a0: 5a56 b33d 785f ae3d f2d4 96be 8c1f 9c3e
000001b0: 8644 88be 1b6a 73be 5b47 533e 29ef da3d
000001c0: 18df a23d 6c02 bdbe e21b 823e 5c1a 863e
000001d0: 1721 983e 70c5 093e dc37 633d 4513 703e
000001e0: 9c9e 16be fac4 4cbe d736 e73d 8307 0abe
000001f0: 2b8a 7abe 76fe da3d 1699 293e 4198 55be
00000200: e5f5 bd3d 8eea 52be 2a59 ff3e 7e5f b5bd
00000210: 9a57 27be ffa8 0d3f a5ae 91be b8f5 eebd
00000220: 90bd 5fbd 472c 6abe 39b7 063f ada0 16be
00000230: a1ce 593e 1698 79be 7553 b1be ff6f 6abe
00000240: b463 08bf e4eb 0e3f eb2a a0be b7e8 cdbe
00000250: ca52 10be 88fb 03bf 0277 2e3e 94a7 ab3e
00000260: 96a8 87be 66a5 e33e c03a e03e 5306 f23e
00000270: c706 e0bd 4c74 9bbd ca8e 61bd 635f d73e
00000280: c3f7 763e 7799 8bbe 98f2 0e3f 56e1 4c3e
00000290: 9881 22be 2169 08bf e111 553e e88a 8f3d
000002a0: 2295 a8be 346a a0be 05a2 a53e 6404 023f
000002b0: 6426 1bbe 4bfb 7e3e a741 d3bc 75db 8e3c
000002c0: 4bb7 9ebe cca7 b93e 8354 923e 825b 3abe
000002d0: 8b1b 1e3e bc1a 853e 12ee b63e a87b 4a3e
000002e0: b812 d6bc a0d2 e1be fb56 68bd 83a0 a73e
000002f0: 2982 8ebd 2dde 9d3e 7733 993e 2628 d63d
00000300: dbdc 983e ec34 32bf b820 123f 2607 9f3e
00000310: 1657 e9be 1e5b 8fbe 7914 abbe f2d6 ab3e
00000320: 9e0e 9e3d 9d7d d7be f877 6fbf 3a91 40be
00000330: eeda 1dbf 056f b83d 3077 303f f09f 41bf
00000340: a9cd a6be 6fe2 613d 9800 d6be 0181 13bf
00000350: 9da0 0c3e f449 ecbd 47bb cebe 7ae7 0ebf
00000360: 918a 81be cb5a 663e 1c0b d53d 4ec5 413e
00000370: 409f 79bf 5ec5 31be f684 2e3e 4207 22bf
00000380: 8f89 59be f07e b13e ad02 9a3e 7315 39bf
00000390: 8629 93bd b2fc 3dbe e001 223f 50d5 5cbc
000003a0: b91b 09be 6d8e 69be 96a4 c8bd ef2b 70bd
000003b0: 217f e93d 04f9 5e3d dbc7 bc3e f402 683d
000003c0: 89a8 17bf a9f0 c3be 89f5 cdbb 48f5 0ebf
000003d0: abe9 a3bd af93 bebd e65c 81be 5ee4 80bf
000003e0: a907 6ebc 2ce4 b5bd 1a7c 003f c245 18bc
000003f0: b072 edbd 91ca 14bf ab53 eabe 7339 32bf
-0.08258392 -0.36740077 0.3229113 -0.09044614 0.3059109 -0.28368172 0.11840316 0.43061256
-0.35437468 -0.22684132 0.28271306 0.34684643 -0.21333997 -0.19480321 -0.24347189 0.087898806
0.09357329 -0.15175611 -0.079369426 -0.36743447 -0.30163002 0.48295358 0.11973845 -0.02206747
0.10941494 -0.23820841 0.18767875 0.27715942 -0.079106644 -0.24676836 -0.2631461 0.15809543
-0.22575551 -0.4832936 -0.071467675 0.13768862 -0.171474 -0.27214497 -0.3050687 -0.5985121
0.12924773 -0.3578286 0.19679864 0.14119288 -0.19725883 0.18050106 0.12759037 -0.22653565
-0.09672797 0.29504812 -0.078162074 -0.4356474 0.48594582 0.17204511 -0.102469824 -0.0050368877
-0.033004403 -0.012994294 0.5069666 -0.20153584 -0.08530638 -0.2077842 -0.41445687 -0.1758761
-0.073841855 -0.36283442 0.12911244 0.10194018 0.013822795 0.029073246 -0.27915177 0.06616783
-0.121189825 0.07322578 -0.086475186 -0.1425759 -0.20329405 0.03724307 -0.3753811 -0.0029826905
0.20279059 -0.28951463 0.17202368 -0.35260722 -0.1509511 -0.05173166 0.34927595 -0.068843335
-0.2917872 0.05311801 0.30345282 -0.22440222 -0.2289663 -0.25884295 -0.10448507 0.18435532
0.047445662 -0.3466164 0.15600632 0.044081517 -0.11728377 0.20703784 -0.006274896 -0.08053979
0.08756705 0.08514303 -0.2945934 0.30492818 -0.2661478 -0.23770945 0.20632689 0.106901474
0.07952708 -0.3691591 0.25411898 0.26191986 0.29712746 0.13454223 0.055473194 0.2344485
-0.14708942 -0.19997016 0.11289757 -0.13479428 -0.2446677 0.10693066 0.16562304 -0.20858862
0.09275416 -0.20597288 0.49872714 -0.08856104 -0.16342011 0.5533599 -0.28453556 -0.11667961
-0.05462414 -0.22868453 0.52623326 -0.1470973 0.21270229 -0.24374422 -0.34633985 -0.22894286
-0.53277135 0.5582869 -0.31282744 -0.4021661 -0.14094082 -0.5155568 0.17037585 0.3352629
-0.26495808 0.44462126 0.43794823 0.4727045 -0.10938793 -0.07590541 -0.055067815 0.42064962
0.24117951 -0.27265522 0.5583892 0.20007834 -0.15869749 -0.53285414 0.20807602 0.07008916
-0.3292628 -0.31331027 0.32350174 0.5078795 -0.15151364 0.24900548 -0.025788141 0.01743863
-0.30999216 0.3626083 0.28580102 -0.1819897 0.15440194 0.2599696 0.35728508 0.19773734
-0.026131973 -0.44106007 -0.056723576 0.32739648 -0.0695842 0.3083357 0.29922077 0.104568765
0.29856 -0.69612 0.57081175 0.3106014 -0.45574254 -0.27999204 -0.33414057 0.33562428
0.07717632 -0.42088023 -0.9354243 -0.188054 -0.61662185 0.0900555 0.68931866 -0.7563467
-0.3257878 0.055147585 -0.41797328 -0.5761872 0.13733144 -0.11537543 -0.40377256 -0.55821955
-0.2530103 0.22495572 0.104025096 0.18922922 -0.9750862 -0.17360446 0.17042908 -0.63292325
-0.2124388 0.34667158 0.30080166 -0.72298354 -0.07185654 -0.18553427 0.6328411 -0.013478592
-0.13389482 -0.22808237 -0.09797017 -0.05863565 0.11401201 0.0544367 0.36871228 0.05664344
-0.5924154 -0.38269547 -0.0062853736 -0.5584302 -0.08003553 -0.09305512 -0.25266188 -1.0069692
-0.0145281935 -0.08881411 0.50189364 -0.009293975 -0.115941405 -0.5812159 -0.4576696 -0.6961891

gat1.bias f4 [256]
00000000: 6234 a83a 9d7a f6bc f01f ddbb b74d 9f3c
00000010: 0f09 74bc 92f4 b13a 767e ec3c 1e3a e0bc
00000020: 67d4 223c 85c9 cdbc 4fbc 86ba 571e 883b
00000030: 2190 8dbc aa32 f1bc e92c 803c 1aa7 56bb
00000040: 3f7d 063d c140 69ba 4e27 8c3c a70b ce3c
00000050: 866c 85bb 259d b2bc b0fe c13b bf79 9abc
00000060: a3ac 9cbc 2649 023c 331d cfbc a634 54bc
00000070: bd35 aebb 525e 2d3c a730 a4bc e82d 893b
00000080: bf2e dd38 2ed7 9c3c 73c7 a5bc 67e2 39bc
00000090: 06e3 5a3b 7069 333c c4c0 423c 1043 5c3c
000000a0: eea4 9a3c 5c86 23ba e225 e73b 3bfa 57bc
000000b0: 35bf 9f3c 4421 323c 4e86 1e3c b9b6 b23b
000000c0: 1301 3c3c 988f d5bb 7d6f e63b 34e5 dbbc
000000d0: d3de 6b3c e3c1 a3bb f723 a9bb 9701 9a3b
000000e0: 80e5 8fbc c68d 093c b96a 9dbc 08cc 303b
000000f0: f171 3cbb e5bc 2abc 1125 50bb 13dd 7ebc
00000100: fa2b 113c 6893 533a 554c bbbc c815 c5bb
00000110: 2314 563c b692 923c 3343 80bc e03d d7bc
00000120: e79d f1bc 999d e03b b05a d9bc 39f4 c338
00000130: e814 81bc 3e3b ae3c 5dbb 80bb 05e7 533a
00000140: 224e 67bb eabc 28bc 7e42 123c 9287 a6bc
00000150: cb97 95bb 6cc0 99bc a887 fa3b 0d83 32bd
00000160: 6d77 7c3a bc12 653c 08c3 9bbb ef81 a2bc
00000170: 0d8e d23b e3ce 47bc 70ac 973c b8dc a6bc
00000180: 6e7a b63c 666d 90bc 0f22 553c d404 78bc
00000190: 8c38 9fbc 5a3e 95bc dbc2 b9bb e8bb e0bc
000001a0: fa20 d8bb f494 9f3c 9829 c4bb 273a ac3c
000001b0: ec62 19bc b486 aa3c 4b41 87bc 79dd 3ebc
000001c0: 6263 b1bc 49b2 72bc 0d27 083c debd 5a3b
000001d0: bb44 8a3c 3ee0 95bc 558e e23a f46c 42bb
000001e0: 8b43 76bc c094 a9bc ac21 9bba a962 473c
000001f0: b1d7 cc3c be74 e53b b0cb 47bc e472 8bbc
00000200: 2de6 9cbc fbd6 aa3c 5c07 ae3c 9a37 12bc
00000210: 5f58 e2bb 115d c03c 8b00 043c ffd7 f5bb
00000220: 461c 403c 57e2 97bc 3440 5f3c 8995 36bc
00000230: 8c3f a63c f8c6 21bc 5ed0 babc 28a6 b3ba
00000240: 8ac9 60bb 04ef b43b 5196 a6ba 22b7 b0bc
00000250: 9c18 2c3c 8c95 b3bc 2702 893c 5ec0 513c
00000260: c43b a7bb 850f f23a 3f0f 9a3c 6f9a 603c
00000270: f53c 7cbc d923 1f3c 8a8b d2bc 5b0e 51bb
00000280: 0f41 1a3c db06 3abc f807 453c 2967 93bc
00000290: b3d2 abbc 6fde 0e3c 284f 673c 178e a33c
000002a0: a2b8 80bc 098a 4bbc 5608 b83b a12b 9a3c
000002b0: 7480 a13c c835 5a3c d51a 8cbc 6709 abbc
000002c0: 927f 08bc c10f 9e3c b3d9 043c 8be6 cc39
000002d0: 0cb8 57bb 236e 8136 215d b83c 308c 6f39
000002e0: da5e 9d3c fab3 c7bc d409 e03a f781 a8bc
000002f0: 10a5 cbbc 7f88 a93b f399 973c 7d61 7f3c
00000300: dfc6 8a3c ce97 d33b e4cb 873c c235 963c
00000310: 1147 ce3a 9942 8bbc ca20 8ebc c3da 8d3c
00000320: d5f2 a33c cf75 8cbc 88d0 7fbc 8622 68bb
00000330: 6d69 eebb 335f cbbc f88b ad3c 4cfb 7bbc
00000340: ea9c 233c 983b 113c f7d7 80bc 61f5 90bc
00000350: aa36 863a f440 95bb 2f75 913b f8b3 ee39
00000360: 48b2 10bc c73b c5bb 67b6 b1bc bc54 8c3c
00000370: 8ec9 c3bc 51ce 6dbc cc6c 3f3c 7143 b9bc
00000380: 5142 8cbc aa39 873c 1b20 483c 4666 d9bc
00000390: 9af6 b53a d635 0c3b 3d85 aebb 2d8a a33b
000003a0: 0b3c 9c3b fa1c 873c cb6e 16bc 2f64 193b
000003b0: bbdb dc3b 97c9 57bc e49a 2f3b 2645 73bb
000003c0: 7193 2e3b 91c2 bfbc 2b37 bd3b cdf5 273c
000003d0: ca64 9dbb 50c7 583c 7342 c13a 1f55 97bc
000003e0: 49bb 47bc 6eda d1ba 7116 d4b9 8a29 98b8
000003f0: efa0 b83b 514f 94bc 5976 a7bc dcac dcbc
0.0012832994 -0.030087763 -0.006748192 0.019446237 -0.014894738 0.0013576916 0.028868895 -0.027371462
0.009938336 -0.025120506 -0.0010279509 0.0041540074 -0.01728064 -0.029443104 0.015646415 -0.003275341
0.032834288 -0.0008897894 0.017108586 0.02515204 -0.004071775 -0.021803448 0.0059202537 -0.018856881
-0.019125288 0.00795201 -0.025282478 -0.0129520055 -0.0053164647 0.01058157 -0.02004273 0.0041863807
0.00010546808 0.019145574 -0.020236706 -0.011345482 0.0033399477 0.010950431 0.011886779 0.013443723
0.018877473 -0.00062379777 0.0070540765 -0.013182218 0.019500354 0.010872189 0.009675575 0.005453911
0.0114748655 -0.006517362 0.0070323334 -0.026842691 0.014396387 -0.0049974783 -0.005161758 0.0046998966
-0.017565489 0.008395618 -0.019215928 0.002697708 -0.0028754438 -0.0104210125 -0.0031760375 -0.015555638
0.0088605825 0.00080709765 -0.022863546 -0.0060145594 0.013066324 0.017892223 -0.015657043 -0.026274621
-0.029494239 0.0068547246 -0.026532501 9.3438146e-05 -0.01575704 0.021268483 -0.0039285854 0.0008083436
-0.0035294374 -0.010298947 0.008926986 -0.020328317 -0.0045652143 -0.018768512 0.007645566 -0.04358201
0.0009630833 0.013981517 -0.004753474 -0.019837348 0.006425625 -0.012195322 0.018514842 -0.020368919
0.022275176 -0.01763029 0.0130086085 -0.01513787 -0.019436143 -0.018218208 -0.0056689805 -0.02743335
-0.006595728 0.019480206 -0.0059864037 0.021023823 -0.009361964 0.020816185 -0.016510626 -0.011649483
-0.021653835 -0.014813014 0.008310092 0.003337733 0.016878476 -0.018295404 0.001728485 -0.0029666992
-0.015030752 -0.020700812 -0.0011835597 0.0121695185 0.025005193 0.007002442 -0.012194559 -0.017022558
-0.019152725 0.020854464 0.021243744 -0.008924389 -0.0069075073 0.023481878 0.00805677 -0.0075025554
0.011725491 -0.018540544 0.013626147 -0.01114405 0.020293973 -0.009874098 -0.022804435 -0.0013706135
-0.0034299814 0.005521657 -0.0012709593 -0.0215717 0.010503914 -0.021921895 0.01672466 0.012802212
-0.00510356 0.001846776 0.018806098 0.013708695 -0.015395393 0.009713137 -0.025701303 -0.0031899426
0.009414925 -0.0113541735 0.012025826 -0.017993527 -0.020974493 0.0087200245 0.014117993 0.019965215
-0.01571304 -0.012423047 0.005616228 0.018819632 0.019714572 0.0133184865 -0.017102638 -0.020878507
-0.008331196 0.019294621 0.008108544 0.0003908168 -0.0032916097 3.857321e-06 0.022505345 0.0002284504
0.019210268 -0.024377812 0.0017092773 -0.020569785 -0.024858981 0.0051737423 0.018506026 0.015587208
0.016940532 0.0064573055 0.016576715 0.01833618 0.0015737732 -0.01699953 -0.01734962 0.017316228
0.020013252 -0.01714602 -0.015613683 -0.0035420968 -0.0072757513 -0.024825668 0.021184906 -0.015379738
0.009986142 0.008864306 -0.01572798 -0.01769513 0.001023968 -0.004554862 0.004439018 0.00045528985
-0.008831568 -0.006019089 -0.021693422 0.017130248 -0.02389982 -0.014514522 0.011683654 -0.022615166
-0.017121466 0.016506989 0.012214686 -0.026538026 0.0013882697 0.0021394393 -0.005325942 0.004990837
0.0047679 0.01649331 -0.009181689 0.0023405661 0.006740061 -0.013170621 0.0026795203 -0.0037120073
0.0026638175 -0.023408206 0.005774399 0.010251475 -0.0048032748 0.013231114 0.0014744535 -0.018473206
-0.012190648 -0.0016010532 -0.0004045251 -7.255662e-05 0.005634419 -0.018104227 -0.020442175 -0.026937895

gat1.lin.weight f4 [256, 5]
00000000: 51d7 e6bd b16b d13b 74b4 02bf 64d7 dfbd
00000010: 103a d23d 8385 f1bd 70ff 3ebd d8d2 b1be
00000020: 748e c63d 5a88 063e f802 433d 4ce9 07be
00000030: 47d2 183f aa40 b83b 967f 073e efb8 a43d
00000040: a6a2 333e 856b a4be 85e6 32bc 076c 673d
00000050: 4cf9 213e 7400 e8bd 64f5 413e d7a5 1a3e
00000060: 5615 eb3d 901d 75be f992 6d3d e302 dcbe
00000070: 379a 19bd b2ff ffbb 5902 0e3e 19a8 813d
00000080: c2c5 273e 47e6 11be 2d21 25be f4c0 f2bb
00000090: f49a 1cbe b05c 853e 0d78 07be dfcf 3a3d
000000a0: 8541 4cbe be50 e43d dbd3 01bf c53c 4fbd
000000b0: 0219 bc3d d750 62be ebc7 01bd c097 61be
000000c0: a3e8 2f3e d0ae ab3d 8b0a 303e 118f 21be
000000d0: 7b68 143f 9270 b33d ebf4 3ebc 46a4 633e
000000e0: bfa7 15be 08e3 073f fe75 39bc bf30 ddbd
000000f0: 8155 063e 0ab9 09be 90e4 173e 2a30 d83d
00000100: 57ab a7bd 54f0 67be 0e4f 05bc cc6d 57be
00000110: 5fe2 243e 59ce 723d 89f2 b13d 1d38 b03d
00000120: be29 c7be 1706 0d3e a565 83bc 3e5b f33d
00000130: 3cec 283d 4505 c7be c1d5 f7bc 891a 1bbd
00000140: 61da bbbc 3bc0 b93d 763f dfbe 1740 a2be
00000150: 6e9d b3bd 626d fbbd c9d4 6dbd fc95 6fbe
00000160: 1578 abbc 0740 013e 1ab6 bfbc cad4 ff3d
00000170: c019 f7be e4ac c63d 076e 2fbc 4e85 ae3c
00000180: 4f66 3d3e 1a54 17bf b98e ec3d 3f76 9d3c
00000190: 6cc7 edba d29d 0f3e b9f6 20bf c937 c73d
000001a0: 9021 373c 282b 9f3d 1bd0 b7bd cba3 ee3e
000001b0: 84d5 d8bd bf83 8ebd f278 a23d fcdd 2d3c
000001c0: ad56 69be a71a 13be d07d 953d 58b6 8e3d
000001d0: fe31 e1bd ff99 6c3e d49d 90bd 392b c33d
000001e0: f59c 57bd a841 12be 9a09 0b3f c44f 62bd
000001f0: d8ef 893d ecea d8bd 0c87 6f3d 3d3a 073d
00000200: e634 ae3d 7ea0 d9bd daa5 8cbd 8349 9fbd
00000210: e205 54be c2ec 273e 5b47 113e 390f 1abb
00000220: 35f7 12be 94a4 043f 49b8 b5bc 9e06 07bd
00000230: 0767 5ebe 9ab9 133e bd07 25bf 5d4e b8ba
00000240: bf29 063d df11 b5bd ed9d 143e e17e 13bf
00000250: 810e 65bd a4fa a03c 0c75 23be 6cc5 43bd
00000260: 14b1 bdbd 7792 2f3e 4239 133e 3ea2 553d
00000270: 713e 2f3e 6ad6 a5be 8ac1 a6bc fd9e 393d
00000280: 7519 653d 9405 af3c aac5 b0be 63ba 253e
00000290: 878b ea3d 5145 28be cc32 513d 723c 14bf
000002a0: cdcf 2dbd 9f42 803d 8e18 b9bc eee1 45be
000002b0: 4682 b33e 3c6c ae3c 4e28 b73c 4c8a 1c3e
000002c0: 3da5 99bd 0476 cc3e a83e 653d d4e0 5a3c
000002d0: 84e5 1abe 6539 293a 5d52 d5be bb0f f8bd
000002e0: 923f f53d 3bef 7bbc 545f a93d 410f 1fbf
000002f0: f635 c7bc f754 d1bd 9a0b e8bc 6a18 be3d
00000300: e3bc 1ebe 7a57 4dbe 1d7a 80bd 194f 38bd
00000310: af00 cf3c a7fc 02bf 9c08 1c3e 8212 d3bc
00000320: 2205 0e3d 7832 8e3d 1b31 c7be 3c86 02be
00000330: a66f 923d f9c4 893c fbe1 df3c 55a1 c5be
00000340: 4f23 ec3b 39c1 80bc dc6b 5c3d 968e d13d
00000350: 6f99 d3be 6f20 88be 8d87 5bbd ef87 a6bd
00000360: add8 0ebe ed14 cd3e 5287 cd3c 6a65 bb3d
00000370: 7a01 413d 7ab3 083e ee27 17bf 46c9 3dbd
00000380: fb27 0f3d 3ca0 743e 1bbb 06be 372d f13e
00000390: 7cb9 c63d c00f 89bd 4f32 7bbc c698 053e
000003a0: 82cb 92be d68e c3bc e63f 2dbd 2ec0 1ebe
000003b0: aa25 093c 21c7 35be d892 1a3e 1d35 f73d
000003c0: 34d8 94bd eab1 203e 0079 e0be 4aec 9bbd
000003d0: 82c9 c439 0291 86bd 6dbc 3ebd 0de2 243e
000003e0: 3bef 4ebd 020a bb3d b47b d43c 87d8 2a3e
000003f0: f158 f8be 7d6c 733d fb68 e33d 2a42 433d
-0.11271537 0.0063910116 -0.510566 -0.109297544 0.10264981 -0.117930435 -0.046630323 -0.34731174
0.096951395 0.13137951 0.047610253 -0.1327259 0.5969586 0.005622943 0.13232264 0.08043086
0.17542514 -0.3211328 -0.010919218 0.056499507 0.15817755 -0.113282114 0.18941265 0.15102325
0.11478679 -0.23937058 0.058001492 -0.42970952 -0.037500586 -0.0078124637 0.13868083 0.0633089
0.16384032 -0.14248 -0.16125937 -0.0074082557 -0.15293485 0.26047277 -0.1322939 0.045608398
-0.19946869 0.11148213 -0.5071389 -0.050595064 0.09184457 -0.2210115 -0.031684797 -0.22030544
0.17178588 0.08382952 0.17191522 -0.15777232 0.57971925 0.087617055 -0.011655073 0.22230634
-0.14614771 0.530808 -0.011319635 -0.10800313 0.13118555 -0.13449493 0.14833283 0.105560616
-0.08186977 -0.22650272 -0.008136524 -0.21037978 0.16101979 0.05927882 0.08688838 0.08604453
-0.38899034 0.13771854 -0.016039679 0.118826374 0.041240916 -0.38871208 -0.030253293 -0.037867103
-0.02293128 0.09069868 -0.43603104 -0.31689522 -0.08770262 -0.122767225 -0.058064256 -0.23397058
-0.020931283 0.1262208 -0.023402262 0.12491758 -0.48261833 0.09700945 -0.010707385 0.021303799
0.18496059 -0.59112704 0.1155066 0.019221423 -0.0018141097 0.14025047 -0.6287647 0.09727437
0.0111774355 0.07771903 -0.0897524 0.4660934 -0.105876 -0.06958722 0.07933225 0.010612007
-0.2278697 -0.14365636 0.072993875 0.06968373 -0.109958634 0.2310562 -0.07061353 0.095297284
-0.05263992 -0.14282858 0.54311526 -0.05525185 0.067352 -0.10591683 0.0584784 0.033014525
0.08506183 -0.106263146 -0.06867571 -0.07777693 -0.20705369 0.1639891 0.14187376 -0.0023507609
-0.14352114 0.51813626 -0.0221826 -0.032965295 -0.2171899 0.1442627 -0.6446493 -0.001406144
0.032754656 -0.08841299 0.14513369 -0.57615477 -0.055922035 0.019650765 -0.15962619 -0.047795698
-0.092622906 0.17145716 0.14377311 0.05215668 0.17113663 -0.32390147 -0.020355958 0.04531764
0.05593248 0.021364965 -0.34525806 0.16184382 0.11452394 -0.16432692 0.051073834 -0.5790473
-0.042434502 0.06262707 -0.022594716 -0.19324467 0.35060328 0.021291845 0.022358086 0.15287131
-0.0750222 0.3993379 0.055967957 0.013359267 -0.15126616 0.0006455391 -0.416644 -0.12112375
0.11975016 -0.015376861 0.082701355 -0.6213265 -0.024317723 -0.10221284 -0.028325845 0.09282
-0.15501742 -0.20052901 -0.06273291 -0.04499731 0.02526888 -0.51166767 0.15237659 -0.025765661
0.034672864 0.0694322 -0.38904652 -0.12746519 0.071502015 0.016817557 0.027329436 -0.3859965
0.0072063575 -0.015717136 0.0538138 0.10232274 -0.41327998 -0.26587245 -0.05359607 -0.08131396
-0.13949843 0.40055028 0.02508894 0.091502026 0.04712055 0.13349715 -0.590453 -0.046334527
0.034950238 0.2388925 -0.13157313 0.4710481 0.09703347 -0.06692457 -0.015331819 0.1304656
-0.2867089 -0.02387182 -0.042297266 -0.15502998 0.008370796 -0.17751743 0.15095079 0.120706774
-0.072678 0.15692869 -0.43842316 -0.07613428 0.00037534168 -0.06570627 -0.046566416 0.16101857
-0.050521117 0.09132768 0.025937892 0.16684161 -0.48505357 0.059429634 0.11104008 0.04767052

gat2.att_src f4 [1, 4, 64]
00000000: 5042 5ebe 1ba1 1abe 1082 9e3d 24ef 563e
00000010: 72b9 b8bd c3ad 8e3e 0765 fb3d 1bd1 2dbd
00000020: ebfc c73d 2bec 4c3e 673c 1e3e 8b76 efbd
00000030: 0292 163e 6711 ba3e cba4 d53d 684f 1c3d
00000040: 55f5 003d ad6e ab3d 0d06 553e 54d5 9dbd
00000050: c224 a3be 7b81 73be c98d 133d b9e1 ba3d
00000060: 70cf a13d 1998 04be 7e76 d43d 59b5 bc3d
00000070: 9c99 3b3e 8c3e 0a3e c698 04be 0e0a 813d
00000080: 567f 48be ec11 483e 39a4 b0bd 808d 9d3c
00000090: cd0e 963e b342 8c3e 2c01 d63d 9ecf 58be
000000a0: e335 243e 104f 3dbc b965 b13e 51a0 783d
000000b0: 729c 763e b0bf 78be a97f e7bd 8622 5c3e
000000c0: 5107 eb3d 5d76 053e 8b1a 77bd 8363 47be
000000d0: 45d5 36be 201c 4bbe 50cb 6dbd e841 4abe
000000e0: b2f0 e13c c1ef a3be bd88 d93d a3a8 4fbe
000000f0: 233a 0abc c82c 6f3d 0883 1a3e 3fe2 93bd
00000100: 0f05 f0bd 2f08 a23e 4c50 2c3e c325 273e
00000110: 99e9 643e 6151 a4bd 9df7 f23d 323f 01be
00000120: efd1 293e f96a 333d 3430 873e 0dfb 943e
00000130: 2837 8d3d 0eaa 153e 8f35 9abc 6118 88be
00000140: f7a4 423e 33ed e03c eb3e a9bd 4891 393e
00000150: 4c87 f8bd 6212 0a3e 420c c4bc 8d86 283e
00000160: 8791 c03b 5885 01bd 4460 73be 3f35 52be
00000170: e1a8 e2bd 7a0a 763e 06b6 dabd 62f5 7dbe
00000180: 9e5c 453e cb54 5abe 0bdf 73be 6448 abbd
00000190: 8ccc 3bbe d49a 193e 1efd 81be 8e7d 4b3d
000001a0: 61d1 63be 6c2e 133e 9629 073e 26a5 b0bd
000001b0: b8c6 723e f42e 3d3e 5c7e 7a3d c2b3 383d
000001c0: b0e2 8abe 592b d73d 4ed4 21be 5b19 1cbb
000001d0: 0f02 c13b 61b5 81be 5a2c dabc 4244 04bd
000001e0: 3404 2dbe 043e cabd 6bd2 08be f88b 83bd
000001f0: 386a 813e 5b37 a039 e12f 39be 6dae 7d3e
00000200: fef6 2abe 6948 243d 869d debd 93cd 9fbe
00000210: 2ced 123e 2b92 a8be e47e b2bd aea8 c0bd
00000220: 229a 00bd f41c 843c f54b 02be 12eb 96bc
00000230: ccd0 35be b345 77be f3c4 2abe 808e 7a3d
00000240: cbe1 813c a4a8 373e fdd5 77be fc37 5f3e
00000250: 3bf0 64bd f845 5c3d 654a 95be 8acd 193d
00000260: 6362 813e 307e 15be abad 813d 1138 98be
00000270: e43e 97bd a085 783e 429d 3fbd 4761 37be
00000280: 591f 30be 5a82 59be 6fd4 91be 9e8b 813e
00000290: f117 70be 7499 7cbd 95d0 7a3e 9d9c 5cbd
000002a0: 9dd6 6abe 7b3a 13be 5ca4 c8bb bc7c 8e3e
000002b0: 8974 a4bd 0267 babd 43a6 6cbd 7568 58be
000002c0: cbe6 023e 32d5 14be 95bb ebbd 19ec b13d
000002d0: f949 6c3e ce2f e7bd 8fd7 853e 9872 643d
000002e0: 48e7 d93d f8a3 72be 745f 1bbe 5ddf 3bbe
000002f0: e6a4 633e 42a8 fc3d 5515 9cbe 8f1a 183e
00000300: 2eaf eabd f3ee 0dbc 15ef 4e3e c98c 723e
00000310: 72e5 84be 93d7 f43d 78ee 933e 328f 6f3d
00000320: a7a6 193e 4062 67be 1646 d33d 36fe 27be
00000330: d12c 3dbe eaac 09be 63e5 433e 4c25 74be
00000340: 4295 90be 170e a63d ceaf 423d 8c64 0c3e
00000350: b453 94be 3e45 d6bc 802e 82be 42d7 cc3d
00000360: b360 88bd a204 6a3d 9853 843e c7cc 35be
00000370: 7e3d 15be 2c4e b3bc 8dd6 27bd 2681 04be
00000380: 5c17 83bd 9911 bc3d 106d 3d3e d727 efbb
00000390: b28c b53e a826 71be 0206 47be 9ef9 04be
000003a0: 9cbd f2bd 459f 163e c79e b03d 82d3 a03e
000003b0: 53b5 8f3e f226 41be 1739 103e 67cb 8d3e
000003c0: 8bc0 1bbe 8f2b e03d 9a0b 8bbd 0155 083e
000003d0: 0c28 813e 5a2e b6bd 7ff2 463e 7bd4 e7bd
000003e0: c5b5 64be 127d d4bd 4305 c8bd b8e9 d53c
000003f0: b9ef 5c3e e524 7ebe a276 e83d 9e58 5fbd
-0.21704984 -0.1510052 0.07739651 0.20989662 -0.09019746 0.27866945 0.12275129 -0.042435747
0.09765037 0.20011966 0.15452729 -0.11692532 0.14704135 0.36341402 0.104318224 0.038161665
0.031483967 0.08370719 0.2080309 -0.07706705 -0.3186398 -0.23779862 0.03602389 0.091250844
0.07900894 -0.12948646 0.10374163 0.09214277 0.18320316 0.13500422 -0.12948903 0.06300746
-0.19579825 0.19538087 -0.08625073 0.019232512 0.29308167 0.27394637 0.10449442 -0.2117295
0.16036181 -0.0115544945 0.3464792 0.060699765 0.24083117 -0.24291873 -0.11303646 0.21497545
0.11476005 0.13033433 -0.060328048 -0.19471554 -0.17854793 -0.19834948 -0.058055222 -0.19751704
0.027580593 -0.32018855 0.10621784 -0.20279174 -0.008436712 0.058392316 0.15089047 -0.072208874
-0.11719715 0.3164687 0.16827506 0.16322999 0.22354735 -0.08023334 0.11863635 -0.12621763
0.1658399 0.04380319 0.26403964 0.29097787 0.06895286 0.14615652 -0.018824367 -0.265811
0.19008242 0.027456855 -0.08263954 0.18121827 -0.12135181 0.13483575 -0.023931626 0.16457577
0.005876723 -0.031621307 -0.23767191 -0.20528124 -0.11067367 0.24027434 -0.106792495 -0.24800637
0.19273612 -0.21321408 -0.23815553 -0.08363417 -0.18339747 0.15000468 -0.25388426 0.049680285
-0.2224784 0.14373177 0.13199458 -0.086252496 0.23708618 0.18474942 0.061155662 0.045093305
-0.27126074 0.10506315 -0.15803644 -0.0023818824 0.005890138 -0.25333694 -0.026632477 -0.03229166
-0.16896135 -0.0987511 -0.13361518 -0.06423181 0.2527635 0.0003055882 -0.1808467 0.2477357
-0.16695783 0.04010812 -0.10869889 -0.31211528 0.14348286 -0.32924017 -0.08715609 -0.09407173
-0.031396993 0.016127087 -0.12724288 -0.018422637 -0.17755431 -0.24147682 -0.16676693 0.061171055
0.015854737 0.17935425 -0.24202724 0.217987 -0.055893164 0.053777665 -0.2915832 0.037549533
0.25270376 -0.14598918 0.06331953 -0.29730275 -0.07385042 0.24269724 -0.046780832 -0.17908202
-0.17199458 -0.21241131 -0.28482386 0.25301832 -0.23446633 -0.06166978 0.2449363 -0.053860296
-0.22933431 -0.14377777 -0.006123109 0.2782954 -0.0803004 -0.091016784 -0.057775747 -0.21133597
0.12783353 -0.14534453 -0.11510388 0.0868761 0.23075093 -0.11288415 0.2614102 0.055773348
0.106398165 -0.23695362 -0.15173131 -0.18346925 0.22230873 0.1233678 -0.30485025 0.14853881
-0.11459194 -0.008662927 0.2020839 0.23686518 -0.25956303 0.1195518 0.28892875 0.05848617
0.15004979 -0.22596073 0.10316102 -0.16405568 -0.18474127 -0.13444868 0.19130473 -0.23842353
-0.28238875 0.08108156 0.04753094 0.1371023 -0.2897011 -0.026156064 -0.25426102 0.10001995
-0.06659069 0.057133324 0.25845027 -0.17753898 -0.14574239 -0.021887861 -0.040976096 -0.12939891
-0.0640094 0.09183044 0.18498635 -0.0072984505 0.35458905 -0.23549902 -0.19435886 -0.12985846
-0.11852571 0.14709194 0.086240344 0.31411368 0.28068027 -0.18862513 0.14084278 0.27694246
-0.15210168 0.10945808 -0.06789322 0.13313676 0.25225866 -0.088955596 0.19428442 -0.11319824
-0.22334965 -0.10375418 -0.097666286 0.026112422 0.21575822 -0.24818762 0.113507524 -0.05452787

gat2.att_dst f4 [1, 4, 64]
00000000: 6226 dcbb ce46 64be d448 133d ca3e cd3d
00000010: 8e16 46be d8b5 afbe d578 adbe 3c78 933c
00000020: bf22 dbbd 70b8 73bd 9de5 6b3e e93a 19be
00000030: c1e0 573e 94eb c5be 9c7e 263e 2ff5 933e
00000040: ff4d b3be dad9 80be 1410 52be e8e3 ff3d
00000050: 0486 343e 26fd c9be 71c8 2d3e 5132 003f
00000060: 1029 9ebd b348 7bbe e4c4 08bf 0dbd ec3d
00000070: 7b1b ab3e c76d 803e 4c27 ae3c 4498 a4be
00000080: 9a50 d23e a0df 36be d9bf 4b3e e811 b3be
00000090: d9d6 06be 6355 943d 518d df3d 04ba ddbb
000000a0: 383c ff3d 3fe9 313e 0ac8 c1be eab7 4ebe
000000b0: 8538 a7bc 4288 a73e cb7c 00bd cd18 7c3e
000000c0: 20ed a9be ce62 21bc edff 14be e7c8 2cbe
000000d0: 4531 1f3e 8810 b03e 79a1 d1be c80b b53e
000000e0: fbc1 64be 1b44 adbc 6297 ae3e b523 edbe
000000f0: fef1 c0bd ab1a 953e 4f62 2a3e 0ae1 793e
00000100: d119 fbbd ac90 873d bdce efbe c823 81be
00000110: d971 823e f82e 313e 133c 8cbe 1f21 9c3d
00000120: 458d efbd 1bd2 83be 2074 80bc 4c4f bcbe
00000130: 77c7 7ebe 7dca 91be d6be 943e 5d6d dabe
00000140: 3f07 16be 252d 37be 4618 403e b16a c9be
00000150: 5736 603d 21b4 aabd ee56 94be 879e 413d
00000160: 3f4f 06bd 6ab7 9cbe 1e2b bd3d 236b 883e
00000170: 6854 553e 448e 0b3b ada7 4bbd 6110 9bbe
00000180: 39b8 fc3d 51a9 93be d571 33be 60a0 d7bd
00000190: 2bd3 e5bb 3729 c1be 036a c1be d04e 21be
000001a0: d7fd ee3d a814 7ebe f63a c93d 83d2 4bbe
000001b0: 3d6f 00bf 7ce8 c93d 6da8 d7bd c8e0 8d3e
000001c0: 9ad4 0e3e b3a4 a33d a8c9 3e3e 1f72 1e3e
000001d0: 9082 1ebe 8412 883e 2772 85be 5da2 5cbe
000001e0: b97c 70be 8315 3f3e b2f5 5d3c fd98 953e
000001f0: 55ac aabe 9f8a 1ebd 2216 fc3c 1508 7cbc
00000200: 8867 b9be bd72 84be 4964 833d 1e77 b03d
00000210: ab68 0ebe 352d f238 63de 89be df24 9bbd
00000220: 9d59 7e3e 1e52 84bd f1f4 2abe 4c75 b33e
00000230: 7141 6d3d 8785 473e 94fe 833e 8131 1e3e
00000240: febc 65be 4910 cabe ba68 1abb 9ab0 da3d
00000250: 025e 35be b5c1 9dba e07b 833e 93db 853e
00000260: cd9f 9e3e f1b3 4e3d 9dd5 5f3e d8fe bb3d
00000270: f233 a0be fc7e 763d 0a48 61bd f5f2 473d
00000280: 7df0 923e 838b 283e 92df 9a3e ad65 e4bc
00000290: eaa8 24be 7771 9d3e e1ce 48be ce5c ebbd
000002a0: 1e56 c9be 4c39 403e 0d27 65bc b26f a43d
000002b0: 4f71 24bd c831 4f3e 8356 a2bd 0637 1abd
000002c0: 8053 79bd 4aa3 0c3e ddfe 54be 8e33 adbe
000002d0: 944e 833e 6efb 253e 4b94 fa3d 0935 8fbe
000002e0: 4755 07be 9db6 313e e512 833e 570d 603d
000002f0: 9f16 bb3e 3d78 bfbc c154 68be 12ef 1d3e
00000300: c89b 6d3e eda0 6abd 4e2a 953e 4b12 b53e
00000310: 9a77 0e3e da5e 3dbe 53c0 42be 0dd4 42be
00000320: d75d 133e 2c2a 17be c0ab bb3e 9de5 5a3e
00000330: 6e67 22be bf1f 623e 91e3 653e 7508 9cbe
00000340: 1d46 3bbe a143 f43d 0ba0 cebc 2ea6 cebd
00000350: 20ee 8b3e 9b7d 13be 2986 6dbd 0eb0 403f
00000360: 0f3c e03e 50db 6fbd edd4 9d3e 81cf 59be
00000370: bd3f d43c 2dd6 b4bd 95df a2be 801c cebd
00000380: 21fd 8cbe df13 ce3e 85ca 5ebe 9552 cc3d
00000390: 0065 823d a24f 7a3e ac9a 2d3e aa07 36be
000003a0: 508e 753e be68 ea3c deb0 8ebe a255 b63c
000003b0: f6b6 95bd ddcb 053e a43e e73d a90c 873e
000003c0: 93c5 9fbe d401 863e 9363 7a3e cd5e 70be
000003d0: 68a7 7a3e aac4 7dbd 0526 523e 16cd 893d
000003e0: 6d1a 49be bceb 50be aa91 6e3e ce45 8c3e
000003f0: 14f0 843e 9cb6 0c3e a2f4 0abe 9e74 fdbd
-0.006718443 -0.22292635 0.035958126 0.10021742 -0.19344541 -0.34318423 -0.3388125 0.018001668
-0.10699987 -0.059502065 0.2303681 -0.14963879 0.2108183 -0.38656294 0.16259235 0.28897998
-0.35020444 -0.25166208 -0.20513946 0.124946415 0.17629248 -0.3945095 0.16970994 0.50076777
-0.07722676 -0.24539451 -0.5342543 0.11559496 0.33419403 0.25083753 0.021258973 -0.3214742
0.4107712 -0.17858744 0.19897403 -0.349746 -0.13167895 0.07242849 0.10915626 -0.0067665596
0.12462658 0.17374133 -0.3784793 -0.20187345 -0.020412693 0.32721144 -0.03136901 0.24618836
-0.33188725 -0.009850217 -0.14550753 -0.16873513 0.15546139 0.34387612 -0.40943506 0.3536055
-0.22339623 -0.02115064 0.3409987 -0.46316305 -0.09421156 0.2912191 0.16639064 0.24402252
-0.122607835 0.06619391 -0.46837416 -0.2522261 0.25477484 0.17303073 -0.27389583 0.07623505
-0.11696867 -0.25746235 -0.015680373 -0.3677925 -0.24880777 -0.284748 0.29051846 -0.42661563
-0.14651202 -0.17888315 0.1875926 -0.39339212 0.054739323 -0.08335138 -0.28972572 0.047270324
-0.03279042 -0.30608684 0.092367396 0.2664424 0.2083298 0.0021294514 -0.049720455 -0.30285934
0.12339825 -0.28840116 -0.17523892 -0.10528636 -0.0070136986 -0.37726757 -0.37776193 -0.15752721
0.1166951 -0.24812567 0.09825699 -0.19904523 -0.50169736 0.09858796 -0.105301715 0.27710557
0.13948289 0.07990398 0.18631613 0.15473221 -0.15479493 0.26576626 -0.26063654 -0.21546312
-0.23485078 0.1866055 0.013547348 0.29218283 -0.33334604 -0.038706418 0.030772272 -0.015382786
-0.362118 -0.25868788 0.06415612 0.0861647 -0.13907115 0.0001154788 -0.2692748 -0.07575392
0.24838872 -0.06460975 -0.16695 0.35050428 0.057923738 0.1948453 0.25780165 0.15448572
-0.22435376 -0.3946555 -0.0023560957 0.10678215 -0.17711642 -0.0012035879 0.25680447 0.26144084
0.30981293 0.050464574 0.21858831 0.09179467 -0.3128963 0.060179695 -0.055000342 0.048815686
0.28699103 0.1645947 0.30248696 -0.027880514 -0.1608006 0.3075063 -0.19610168 -0.114923105
-0.39323515 0.18771857 -0.013986361 0.08029117 -0.040147122 0.20233834 -0.07926657 -0.03765013
-0.060870647 0.13734165 -0.20800348 -0.33828396 0.25645888 0.16209194 0.12235316 -0.2797015
-0.13216124 0.17354818 0.25600353 0.054700222 0.36540696 -0.023372764 -0.22688581 0.1542323
0.23203957 -0.057282377 0.29133838 0.3536552 0.13912812 -0.18493214 -0.19018678 -0.19026203
0.14391266 -0.14762181 0.36654472 0.21376653 -0.15859768 0.22082423 0.22450091 -0.30475202
-0.18288465 0.11926962 -0.025222799 -0.1009029 0.27330112 -0.14403383 -0.057989273 0.7526864
0.4379582 -0.058558762 0.30826512 -0.21270563 0.025909299 -0.08829913 -0.31811205 -0.1006403
-0.27536872 0.40249535 -0.21756943 0.09976689 0.063669205 0.2444444 0.16953534 -0.17776361
0.23980069 0.028614398 -0.27869314 0.02225763 -0.07310288 0.13066049 0.112912446 0.26376846
-0.31205425 0.2617327 0.24452047 -0.23473664 0.24477923 -0.06195513 0.20522316 0.0672857
-0.19638987 -0.20402426 0.23297754 0.27397007 0.25964415 0.13741535 -0.13569883 -0.123757586

gat2.bias f4 [256]
00000000: 9b85 80bd 41af d6bd 23c4 f0bd c02c 2d3d
00000010: cddc f0bd 4376 f9bd 230a 0cbe 3dd0 1e3d
00000020: b54e 0cbe d5b5 e83c 070f 2d3d 7144 02be
00000030: 48f6 f5bd 4002 94bd 5c7f 0c3d 3379 2cbd
00000040: ef42 42bd c246 01be 2c53 303d 5bb4 b93c
00000050: cfc7 3b3d b8aa 0cbe b032 443d 876e 333d
00000060: a09f f93c fa23 07be 8788 b53b 1416 9cbd
00000070: 414f 673d 503a c93c b1e7 b1bd 9d50 24bd
00000080: e971 583d ffa8 123d 77c4 dc3c b21a 05be
00000090: d8da ecbd 5f90 04be 7194 153d 2f41 5c3d
000000a0: 3ddf 343d e229 1b3d 9587 80bd 7b87 d2bd
000000b0: f866 9abd b157 293d 6dc1 9aba c0b1 243d
000000c0: 4562 b8bd 62f3 443d 966f ebbd 39cb eebd
000000d0: 9a12 513d 89f0 3b3d 13f7 babd bf6c 1b3d
000000e0: 1a41 2e3c cf3f 113d c23f 563d 145b 08be
000000f0: f5e2 293d 388b 26bc a38d 5c3d 1d02 08bc
00000100: abd7 353d 9261 223d 3551 ffbd abfc 08be
00000110: d8c9 123d 2633 293d b3a4 34bd e51e 9e3c
00000120: 67cf d1bd 5853 04be aa73 073d f2e5 05be
00000130: e2f0 fcbd 31c1 fabd cdff 0d3d 3b58 f9bd
00000140: 80d4 dc3c b127 e13c 008e 44bd 091f f8bd
00000150: 6ea9 06be fc26 07be 5930 d33c 36e6 0ebe
00000160: 46b7 a0bc c4e8 543c 836d 113c ceee 263d
00000170: 6d01 123d 2b87 de3b 02f6 46bb 94bd 12be
00000180: 5739 863c 21d2 f2bd e80c ee3c 8fed a2bd
00000190: aab9 98bc 61ea d8bd 8d50 20be 8d87 f4bd
000001a0: 7b60 0f3d 0ff4 d53c 2d8b 81bd 29e8 e0bd
000001b0: 532c dfbd c421 ffbd 1082 ea3c 4dcf 403d
000001c0: 8439 18be 893c d1bd e50e 413d 96ed 0a3d
000001d0: 88a3 d5bc 49cc 303d 36ef 66bd 8d66 263d
000001e0: 72ad 1cbe c21c 393d 8a23 79bd 2ffa 1d3d
000001f0: d64a 9dbd cc5b 613d e5a9 99bd 845d 06be
00000200: f700 0a3d 7d1b 1c3d ccc8 2b3d b585 2c3d
00000210: d0ed 8abd 95d8 1f3d 8caa 903c 7a85 373d
00000220: 21f2 04be e7b7 e8bd 6965 00be 9e88 0ebe
00000230: a06f 1b3d 6313 cc3c 0d65 eabd 64f1 f8bd
00000240: 6041 503d 1b5c 093d 0986 463d e190 d93c
00000250: a989 383d 3e8b 0a3d 6f25 08be 6341 d4bc
00000260: 821e eb3b 57bf 303d 61d6 10be 5f62 1bbe
00000270: ab60 293d 866a bfbd 218d 593d 5851 3ebd
00000280: 1e3c 00be 78b4 d3bd a6cb 35bd 985e edbd
00000290: a0c2 b8bd 9069 11be fbf6 323c 59ba 6dbd
000002a0: d723 aebc d62a 0abe a80f 99bd 2260 b0b9
000002b0: 1f08 fbbd f173 04be 873e 583d 4146 263d
000002c0: dcb0 293d 50ed 06be 9299 dd3c 8de3 1e3d
000002d0: 7cf9 cc3c 7b8e 0e3d c53f 16be 50f3 403d
000002e0: aefe 06be 57bc abbd fd40 fbbd e5d7 05be
000002f0: 8ced d7bd 6b69 b0bd 52dd 573d 9690 22bd
00000300: 421d fdbd 5720 443d dec1 253d df2e 03be
00000310: 6327 123d 1e67 fdbd fc11 3b3d 32c7 01be
00000320: 1381 8e3c 2d96 03be 6881 fbbd 2519 e8bd
00000330: b65a 0dbe ae8b 003d b824 34bc cca6 393d
00000340: 7a21 eebd bea2 173d 2b0a 213d c76a d33c
00000350: 110a 433d ca75 033d ce51 103c e2cd 0a3d
00000360: 846a 113d 8e6c 133d abbd e73c efbe f5bd
00000370: 98b4 3cbd 7540 f93c 85bf 1d3d 926c 05be
00000380: 9c8b c6bc 0158 133d 6e44 213d 2d16 edbd
00000390: 1de3 77bc 5080 b7bd 242d 1b3d b3de 3b3d
000003a0: 2639 f8bd f082 0bbe 15ae aebd 70ef 243d
000003b0: f387 5fbc 6a26 9f3c 8abd 82bc 441f 403d
000003c0: 159f 093d ec71 ffbc 6734 febd e0d1 e8bd
000003d0: 0a8e 563d 1257 333d d390 133d ceed 353d
000003e0: fc61 363d f739 02be 4a56 cd3c 2c54 f5bd
000003f0: 26eb fabd 4347 1b3d 826f 18be 9bbd 3d3d
-0.06275483 -0.10482646 -0.1175616 0.042279005 -0.117608644 -0.1218076 -0.13675742 0.03877281
-0.137019 0.028407017 0.04225066 -0.12721421 -0.12009865 -0.07226992 0.034301147 -0.042107772
-0.047427114 -0.12624648 0.04304807 0.022669008 0.04584485 -0.13736999 0.047899902 0.04380658
0.030471623 -0.13197318 0.005539957 -0.076213986 0.056472067 0.024563938 -0.0868677 -0.04011594
0.05284301 0.0358057 0.02694915 -0.12998465 -0.11565179 -0.12945698 0.036518518 0.0537731
0.04415821 0.03788174 -0.0627586 -0.10279747 -0.07539171 0.041343395 -0.0011806913 0.040208578
-0.090031184 0.04808367 -0.11495893 -0.116598554 0.05104313 0.04588369 -0.09129157 0.037945505
0.010635639 0.035461243 0.052306898 -0.13315994 0.04147621 -0.010165028 0.053846013 -0.008301285
0.04439513 0.03964383 -0.12466661 -0.13377635 0.035837024 0.041308545 -0.044102382 0.019301841
-0.10244637 -0.12922418 0.03306929 -0.13075998 -0.12350632 -0.122438796 0.03466778 -0.12175032
0.026956797 0.027484747 -0.047986984 -0.121152945 -0.1315057 -0.13198465 0.02577989 -0.13955006
-0.019618642 0.012994949 0.008876207 0.040755086 0.03564589 0.0067910156 -0.0030359034 -0.14330131
0.016384764 -0.11856485 0.029058889 -0.07955467 -0.018643219 -0.10591579 -0.15655728 -0.11939917
0.03500412 0.026117353 -0.06325374 -0.10981781 -0.10897126 -0.12457612 0.028626472 0.047072697
-0.1486569 -0.10216624 0.047133345 0.033917986 -0.026078954 0.04316357 -0.056380473 0.040625144
-0.15300539 0.04519344 -0.06082491 0.03856867 -0.076802894 0.055019185 -0.07503108 -0.13121611
0.033692326 0.038112152 0.04193954 0.0421197 -0.067836404 0.039024908 0.017659448 0.044805028
-0.1298299 -0.113632016 -0.12538685 -0.13919303 0.03794825 0.024911588 -0.11445055 -0.121554166
0.050843596 0.033535104 0.04846767 0.026558341 0.045053158 0.033824198 -0.1329553 -0.025910085
0.0071752677 0.043151226 -0.14144279 -0.15174244 0.041351955 -0.093464896 0.053113107 -0.046464294
-0.12522933 -0.10337156 -0.044383667 -0.11590308 -0.09021497 -0.14200425 0.010923143 -0.058039043
-0.021257324 -0.13492903 -0.07473689 -0.0003364096 -0.12257408 -0.12934853 0.052794006 0.040594343
0.041428432 -0.13176465 0.027050767 0.038791228 0.025021307 0.03480385 -0.14672764 0.04710704
-0.1318309 -0.08385532 -0.12268255 -0.13070638 -0.10543355 -0.08613857 0.052701302 -0.03968867
-0.12359096 0.047882404 0.04046809 -0.12810849 0.035682093 -0.12373184 0.045671448 -0.12673643
0.017395532 -0.12850256 -0.12280542 -0.11332921 -0.13804135 0.03138321 -0.010995083 0.045325086
-0.11627479 0.037020437 0.039316338 0.025807751 0.047617022 0.032094754 0.008808566 0.03388775
0.03550197 0.035992198 0.028288683 -0.11999308 -0.046070665 0.030426243 0.038512725 -0.13029698
-0.024236493 0.0359726 0.0393719 -0.11576495 -0.015129832 -0.089600205 0.037884846 0.04586668
-0.12120275 -0.13624167 -0.08529297 0.040267408 -0.013643253 0.019427497 -0.01595952 0.046904817
0.033598978 -0.031182252 -0.12412339 -0.113681555 0.052381553 0.04378421 0.036026787 0.04441624
0.04452704 -0.12717424 0.02506556 -0.11978945 -0.12251882 0.037909757 -0.14886287 0.0463234

gat2.lin.weight f4 [256, 256]
00000000: 4139 2a3d 4f46 163c b692 413d 25a9 d3bd
00000010: a6d9 df3c e758 073e 1076 00be 11e8 733d
00000020: 8f34 7cbd 98a1 d33d 6ff9 31bc a126 d6bb
00000030: 23d9 bb3d ff91 0abd 2d7d 56bd cbe4 03bb
00000040: 7b4b c7bd 6011 003e 455f 0a3d 1bdd 17bd
00000050: 4202 c6bc 227e 233d ec2e 41bd 76a3 5fbd
00000060: aae4 cf3d 7915 21bd eed6 4cbc c8aa 32bd
00000070: 1c11 ec3b 1d42 ad3d ff87 e03b 43d6 00bd
00000080: 3610 003e 15c9 3a3c 4611 533c 8186 0fbd
00000090: 84f1 ec3d 7629 ee3d c6e7 e9bd fcc2 0a3e
000000a0: 43df a53c 163a 38bd eae1 a63d 5098 fcbb
000000b0: 434b 8cbd d126 92bd b8a9 c1bd fa45 d7bc
000000c0: 1f9c c8bd 329a d83c ab6f 50bd a093 823b
000000d0: 2b0f 01be c93d 85bd e989 01bd 4f59 b13b
000000e0: 77f9 de3d 5a9c 853d fc4e ae3b ea6a 6abd
000000f0: 3deb 923d 9589 463d 5e27 13bd 6549 a1bd
00000100: 66ad 6b3d 56cc b83d 4664 a03d ad97 b9bc
00000110: 2d6d 23bd 89de 603d 487e 213c 594b 3e3d
00000120: 86aa 89bd cc1b 20bd 88af bcbc 0ebc c03d
00000130: 90be bcbc 4ef3 10be 000f 93bd 5650 d2bd
00000140: 2ef1 61bc 6249 a13d ffe4 eebd 13ff eb3d
00000150: 5850 393c d485 29bd 8378 70bc 721b 393d
00000160: 316b c5bd 3c3f 07be 5b76 ad3c 3148 8c3d
00000170: 0cbc ed3c 9257 a53d 4175 c5bd 9a0c acbc
00000180: 089b 1dbe 564b bcbd 40eb 47bd 88de acbb
00000190: cb25 943d 1649 fcbc c33e 3cbc 8099 f83c
000001a0: 3e39 05bd 1db7 c6ba dbc2 2d3d 0691 6abc
000001b0: 199c fabd fd78 9d3c ec1d 35bd 773c b13d
000001c0: d973 b33c de87 ebba 2155 b2bd 694e 2bbd
000001d0: b047 df3c 6825 c5bd a87f ab3d 81d4 eebd
000001e0: c1ee 7b3b 7062 5f3c c9c1 3e3d ceb5 743d
000001f0: 253f 953d b7a3 143e 718f 99bd 607b 81bd
00000200: 1b88 21be 826a c3bd c008 e8bd 983d 0e3c
00000210: 93af e53d 1323 4c3d 84d4 a13d 9f13 143d
00000220: e296 373d e74d 363d 258f 303d f989 173e
00000230: b6c5 b03c 4318 b93b 7c07 ee3d 9482 8e3d
00000240: 7260 033d 3b3d c43d 5f56 323e f5fb 753c
00000250: 8316 e1bb da92 883d 0b3b c23b a5c6 88bc
00000260: b26e c23b 87b9 a23d 9d83 00be 86cb fdbc
00000270: 08d7 9ebc cc4d 223c f474 93bd 36b4 ed3d
00000280: aebb c83d 8d1c c03d 1042 abbd 6a5c adbc
00000290: bf7f c13d b0a0 993d 4f80 ce3d 4cce d03b
000002a0: f442 96bc 2663 0dbd 7467 bb3d 6bc3 69bd
000002b0: d808 cfbd 7f1d 88ba 395c 5a3d 7de1 97bc
000002c0: 91fe 5c3c 0c94 b8bd 0391 81bd 06c1 80bd
000002d0: 44c3 b2bd 9694 7b3d daff 26bd e0fb 4cbd
000002e0: 29da 43bd 07e6 f4ba f489 a03c d91d b93c
000002f0: 0935 233d d47b 8c3c e65b 76bc 74dd 82bd
00000300: 4d42 06be 2ee1 f1bc fd85 a43d 24bd 88bd
00000310: dbec bbbb 4ebe b83d af96 ac3d 7e90 38bc
00000320: 6e58 31bd 9921 8a3d ced3 993d aee3 50bc
00000330: ec85 84bd 425a 953c af85 bb3d 4daf a2bd
00000340: cd3c c2bc fc58 18bc 55d9 a8bb 472c 99bc
00000350: 6440 653d 2f5e 13bd 6e97 f5bb 3d7f 0b3e
00000360: 1760 a13d 0bb7 f2bb f8f4 653d 151c d7b9
00000370: 5355 623d 60d0 373d 5442 c03c b166 9abc
00000380: 4ce1 ddbc 5bd6 9a3c 7c94 9f3d 8017 ee3d
00000390: 6071 6a3c 1a68 173d 7683 023e 50e1 3e3d
000003a0: be47 8f3d 7a16 d13d e25a e8bc 695a e83c
000003b0: 3eb8 71bd b426 f93d 7e6b e43c e3ba 2fbd
000003c0: 1145 cebc 0cbd 97bb d040 6d3d 55de fcbd
000003d0: e489 453c fd7e 8e3c 5911 883d a66c 393d
000003e0: 147a 80bd e4d3 6fbd d5c3 f03d 5081 073d
000003f0: 51a0 06be 1e5b 28bd 9b70 543d 113f 97bb
0.041558508 0.009172036 0.047259055 -0.10334996 0.027325463 0.13217507 -0.12545037 0.059547488
-0.06157356 0.10333556 -0.010862692 -0.0065353666 0.09172275 -0.03383064 -0.05236547 -0.0020125385
-0.09731194 0.12506628 0.033782262 -0.037076097 -0.024170998 0.03991521 -0.04716389 -0.054599248
0.10151036 -0.03932712 -0.012502415 -0.0436199 0.007204188 0.08459876 0.0068521495 -0.031454336
0.12506184 0.011400481 0.012882536 -0.035040382 0.11569503 0.11629002 -0.114211604 0.13550943
0.020248061 -0.04497727 0.081485584 -0.0077085868 -0.068502925 -0.0713631 -0.094561994 -0.026278485
-0.09795403 0.026440714 -0.050887745 0.0039848834 -0.12603442 -0.06505925 -0.031625662 0.0054122577
0.108874254 0.06523962 0.0053194743 -0.057230867 0.071737744 0.048471052 -0.035926215 -0.07875327
0.057538413 0.09023349 0.07831626 -0.022655332 -0.03989904 0.054899726 0.009856768 0.046458576
-0.06721978 -0.03908901 -0.023032919 0.094108686 -0.023040086 -0.14155313 -0.071805954 -0.10269229
-0.013790412 0.07875325 -0.11664771 0.11523261 0.011310659 -0.041387394 -0.01467717 0.04519219
-0.09639586 -0.13207716 0.0211746 0.06849707 0.029020332 0.08073343 -0.09641505 -0.021002103
-0.15391171 -0.09194057 -0.048808336 -0.005275551 0.07233771 -0.030796569 -0.011489573 0.030346632
-0.032525294 -0.0015160773 0.042422157 -0.014316803 -0.122368045 0.01922273 -0.04421799 0.08654111
0.021905826 -0.0017969569 -0.08707643 -0.041822825 0.027255863 -0.09626275 0.08373958 -0.11661626
0.003844187 0.013634309 0.046571527 0.059743695 0.072874345 0.14515577 -0.074980624 -0.0632236
-0.15774576 -0.09541799 -0.11329794 0.008681677 0.11215129 0.049838137 0.07901862 0.036151525
0.044821627 0.044507887 0.043105263 0.14798726 0.02157865 0.005648644 0.11622521 0.069584996
0.0320744 0.09581991 0.1741576 0.0150136845 -0.0068691387 0.06668635 0.0059274486 -0.016696284
0.005933606 0.07945543 -0.12550206 -0.030980837 -0.019389644 0.0099062435 -0.072000414 0.11606638
0.09801422 0.09380446 -0.0836221 -0.02116223 0.09448194 0.07501352 0.10083067 0.0063722488
-0.018342473 -0.034518383 0.091505915 -0.05707113 -0.10109109 -0.0010384767 0.053310607 -0.018540138
0.013488428 -0.09012613 -0.06326487 -0.06286816 -0.0872865 0.061421 -0.040771343 -0.050044894
-0.047815476 -0.0018684276 0.019597031 0.02259724 0.0398455 0.01714889 -0.015036559 -0.06389895
-0.13111229 -0.02952632 0.08033369 -0.06676701 -0.0057350225 0.09020673 0.08427178 -0.011264918
-0.043297224 0.067446895 0.07511102 -0.012749596 -0.06470856 0.018231515 0.091563575 -0.07943592
-0.023710633 -0.009298559 -0.005152861 -0.01869787 0.05596961 -0.035978492 -0.0074948585 0.13622756
0.07879656 -0.0074070743 0.056141824 -0.00041028918 0.055257153 0.044876456 0.023469128 -0.018847795
-0.027084969 0.01890104 0.07791993 0.11625576 0.014309257 0.036964513 0.12745461 0.046601593
0.069961056 0.10209365 -0.028363649 0.028363423 -0.059013598 0.12165585 0.027883288 -0.04290284
-0.025179418 -0.0046306904 0.05792314 -0.12347094 0.0120568015 0.017394537 0.06643934 0.04526963
-0.062732846 -0.058551684 0.11756102 0.033082306 -0.13147093 -0.04110252 0.0518652 -0.0046156724
